…
2025-10-15 10:20:04,387 - INFO -   P_wave_velocity: mean=1995.290, std=658.094
2025-10-15 10:20:04,387 - INFO -   Thermal conductivity mean (W/(m*K)): mean=1.565, std=0.840
2025-10-15 10:20:04,527 - INFO - 
Using device: cuda
2025-10-15 10:20:04,527 - INFO - 
================================================================================
2025-10-15 10:20:04,527 - INFO - STEP 3: Training VAE with latent_dim=2
2025-10-15 10:20:04,527 - INFO - ================================================================================
2025-10-15 10:20:04,529 - INFO - 
Model architecture:
2025-10-15 10:20:04,529 - INFO - VAE(
  (encoder): Sequential(
    (0): Linear(in_features=4, out_features=16, bias=True)
    (1): BatchNorm1d(16, eps=1e-05, momentum=0.1, affine=True, track_running_stats=True)
    (2): LeakyReLU(negative_slope=0.2)
    (3): Dropout(p=0.2, inplace=False)
    (4): Linear(in_features=16, out_features=32, bias=True)
    (5): BatchNorm1d(32, eps=1e-05, momentum=0.1, affine=True, track_running_stats=True)
    (6): LeakyReLU(negative_slope=0.2)
    (7): Dropout(p=0.2, inplace=False)
  )
  (fc_mu): Linear(in_features=32, out_features=2, bias=True)
  (fc_log_var): Linear(in_features=32, out_features=2, bias=True)
  (decoder): Sequential(
    (0): Linear(in_features=2, out_features=32, bias=True)
    (1): BatchNorm1d(32, eps=1e-05, momentum=0.1, affine=True, track_running_stats=True)
    (2): LeakyReLU(negative_slope=0.2)
    (3): Dropout(p=0.2, inplace=False)
    (4): Linear(in_features=32, out_features=16, bias=True)
    (5): BatchNorm1d(16, eps=1e-05, momentum=0.1, affine=True, track_running_stats=True)
    (6): LeakyReLU(negative_slope=0.2)
    (7): Dropout(p=0.2, inplace=False)
    (8): Linear(in_features=16, out_features=4, bias=True)
  )
)
2025-10-15 10:20:04,530 - INFO - Total trainable parameters: 1,640
2025-10-15 10:20:06,335 - INFO - Starting training for 200 epochs...
2025-10-15 10:20:06,335 - INFO - Device: cuda, Learning rate: 0.001, Beta: 1.0
2025-10-15 10:20:08,164 - INFO - Epoch 1/200 - Train Loss: 1.5550 (Recon: 1.1880, KL: 0.3671) - Val Loss: 0.5991 (Recon: 0.5650, KL: 0.0341)
…
2025-10-15 10:20:08,708 - INFO - Saved models: /home/utig5/johna/bhai/ml_models/checkpoints/vae_lithology_latent2.pth, /home/utig5/johna/bhai/ml_models/checkpoints/vae_lithology_latent2_best.pth
2025-10-15 10:20:08,708 - INFO - 
================================================================================
2025-10-15 10:20:08,708 - INFO - STEP 3: Training VAE with latent_dim=8
2025-10-15 10:20:08,708 - INFO - ================================================================================
2025-10-15 10:20:08,709 - INFO - 
Model architecture:
2025-10-15 10:20:08,709 - INFO - VAE(
  (encoder): Sequential(
    (0): Linear(in_features=4, out_features=32, bias=True)
    (1): BatchNorm1d(32, eps=1e-05, momentum=0.1, affine=True, track_running_stats=True)
    (2): LeakyReLU(negative_slope=0.2)
    (3): Dropout(p=0.2, inplace=False)
    (4): Linear(in_features=32, out_features=64, bias=True)
    (5): BatchNorm1d(64, eps=1e-05, momentum=0.1, affine=True, track_running_stats=True)
    (6): LeakyReLU(negative_slope=0.2)
    (7): Dropout(p=0.2, inplace=False)
    (8): Linear(in_features=64, out_features=128, bias=True)
    (9): BatchNorm1d(128, eps=1e-05, momentum=0.1, affine=True, track_running_stats=True)
    (10): LeakyReLU(negative_slope=0.2)
    (11): Dropout(p=0.2, inplace=False)
  )
  (fc_mu): Linear(in_features=128, out_features=8, bias=True)
  (fc_log_var): Linear(in_features=128, out_features=8, bias=True)
  (decoder): Sequential(
    (0): Linear(in_features=8, out_features=128, bias=True)
    (1): BatchNorm1d(128, eps=1e-05, momentum=0.1, affine=True, track_running_stats=True)
    (2): LeakyReLU(negative_slope=0.2)
    (3): Dropout(p=0.2, inplace=False)
    (4): Linear(in_features=128, out_features=64, bias=True)
    (5): BatchNorm1d(64, eps=1e-05, momentum=0.1, affine=True, track_running_stats=True)
    (6): LeakyReLU(negative_slope=0.2)
    (7): Dropout(p=0.2, inplace=False)
    (8): Linear(in_features=64, out_features=32, bias=True)
    (9): BatchNorm1d(32, eps=1e-05, momentum=0.1, affine=True, track_running_stats=True)
    (10): LeakyReLU(negative_slope=0.2)
    (11): Dropout(p=0.2, inplace=False)
    (12): Linear(in_features=32, out_features=4, bias=True)
  )
)
2025-10-15 10:20:08,710 - INFO - Total trainable parameters: 25,172
2025-10-15 10:20:08,762 - INFO - Starting training for 200 epochs...
2025-10-15 10:20:08,762 - INFO - Device: cuda, Learning rate: 0.001, Beta: 1.0
2025-10-15 10:20:08,788 - INFO - Epoch 1/200 - Train Loss: 2.8609 (Recon: 1.4578, KL: 1.4031) - Val Loss: 0.5582 (Recon: 0.5375, KL: 0.0207)
…
