…
2025-10-15 10:19:23,312 - INFO -   P_wave_velocity: mean=1995.290, std=658.094
2025-10-15 10:19:23,312 - INFO -   Thermal conductivity mean (W/(m*K)): mean=1.565, std=0.840
2025-10-15 10:19:23,692 - INFO - 
Using device: cuda
2025-10-15 10:19:23,692 - INFO - 
================================================================================
2025-10-15 10:19:23,692 - INFO - STEP 3: Training VAE with latent_dim=2
2025-10-15 10:19:23,692 - INFO - ================================================================================
2025-10-15 10:19:23,725 - INFO - 
Model architecture:
2025-10-15 10:19:23,725 - INFO - VAE(
  (encoder): Sequential(
    (0): Linear(in_features=4, out_features=16, bias=True)
    (1): BatchNorm1d(16, eps=1e-05, momentum=0.1, affine=True, track_running_stats=True)
    (2): LeakyReLU(negative_slope=0.2)
    (3): Dropout(p=0.2, inplace=False)
    (4): Linear(in_features=16, out_features=32, bias=True)
    (5): BatchNorm1d(32, eps=1e-05, momentum=0.1, affine=True, track_running_stats=True)
    (6): LeakyReLU(negative_slope=0.2)
    (7): Dropout(p=0.2, inplace=False)
  )
  (fc_mu): Linear(in_features=32, out_features=2, bias=True)
  (fc_log_var): Linear(in_features=32, out_features=2, bias=True)
  (decoder): Sequential(
    (0): Linear(in_features=2, out_features=32, bias=True)
    (1): BatchNorm1d(32, eps=1e-05, momentum=0.1, affine=True, track_running_stats=True)
    (2): LeakyReLU(negative_slope=0.2)
    (3): Dropout(p=0.2, inplace=False)
    (4): Linear(in_features=32, out_features=16, bias=True)
    (5): BatchNorm1d(16, eps=1e-05, momentum=0.1, affine=True, track_running_stats=True)
    (6): LeakyReLU(negative_slope=0.2)
    (7): Dropout(p=0.2, inplace=False)
    (8): Linear(in_features=16, out_features=4, bias=True)
  )
)
2025-10-15 10:19:23,725 - INFO - Total trainable parameters: 1,640
